torch_/config/base.pth (torch, 586052 bytes, 10 tensors)

model.0.weight f4 [32, 3, 5, 5]
-0.03402461 0.007744701 -0.035798866 0.042069897 -0.069512926 -0.06510555 0.03677711 -0.048555717
-0.024655547 -0.00860907 0.15955299 0.014715646 0.06311884 0.08612257 -0.061385926 0.023303373
0.16361567 0.12532915 0.12456563 0.12788825 0.15756927 0.1783339 0.14619221 0.1062074
0.015735958 -0.07449511 -0.018942466 -0.087830156 -0.008713767 0.09958294 0.07605779 -0.022705441
-0.064383686 -0.12824921 0.09937931 0.02883502 -0.10038568 -0.018869758 -0.12420885 -0.052075647
0.038250808 -0.08907287 0.101396345 -0.13051388 -0.10720084 -0.03089542 -0.03299965 -0.032948535
-0.032739297 0.0026602354 0.10058464 -0.056483712 -0.05078668 0.068253145 0.14225665 -0.015370654
0.06707598 -0.07362441 0.108305186 0.0754368 -0.13324326 -0.08135058 0.05095461 -0.013917935
0.12251673 -0.11500205 -0.068119526 -0.13304594 -0.10357271 -0.100764215 -0.11478302 -0.105232194
-0.024036918 -0.04132175 -0.12918034 0.13082226 -0.018030804 0.09495402 -0.15807302 -0.14586963
0.046484426 0.13533907 0.098869 0.008471833 -0.18037799 0.11091999 -0.09569214 0.01800376
-0.04945294 -0.054676227 -0.110352404 -0.13378291 0.099222615 0.03926314 0.082914144 -0.11013839
-0.010040778 0.0051083746 0.05365827 -0.011936864 -0.07113602 0.11055776 0.10600738 -0.08095248
-0.028298264 0.02390603 0.09548513 0.08651458 0.0071769687 -0.19061434 0.10373431 0.09252202
-0.13878159 -0.10473451 0.08780494 -0.13545452 -0.035978105 -0.096648864 0.16518961 0.09363615
-0.103601746 -0.13118896 0.07653706 0.04142359 -0.03584632 0.014844163 0.12647109 0.04868172
-0.14215137 0.005818324 0.16371372 0.011793801 -0.072042234 -0.08595854 -0.17442544 0.0744394
0.05064641 -0.09163722 0.102466926 -0.038432576 -0.058612898 -0.05492897 4.187337e-05 0.08215123
0.01806696 0.07056162 0.09339553 -0.009681369 -0.06442196 0.15424794 0.07248403 0.087980546
-0.09096598 -0.09830533 0.0519467 -0.023396218 -0.00081800733 -0.09919002 0.060189925 -0.006172829
-0.10146445 -0.017859118 -0.052663304 0.031541787 0.1516853 -0.027394524 -0.04448743 -0.12581645
-0.015749756 -0.064468056 0.083927326 -0.02342499 -0.0880639 -0.0060271625 -0.026608968 -0.13688037
-0.039535183 -0.046300564 0.050561797 0.013836947 -0.089442044 -0.07761007 -0.094417065 0.1278274
-0.019157907 -0.1099561 -0.1473422 -0.114572525 -0.013853241 0.17971215 -0.14410461 -0.015780065
0.037053272 0.07444439 0.16472962 -0.084881045 -0.017668683 -0.049747445 0.10980384 0.1271605
-0.028330652 -0.052887976 -0.025004473 0.029207794 0.053462997 -0.055925664 0.08597291 -0.083880246
0.055954546 0.17027777 -0.13508649 0.0079521565 0.05595271 0.09710645 0.14314249 0.07242644
-0.08386341 -0.11665853 0.08507729 0.17611456 -0.05806452 -0.05873335 -0.0874379 0.069122486
-0.0053425985 -0.044759445 0.041240577 -0.07639775 0.110506676 0.06320039 0.030126024 -0.06518307
-0.1252647 0.07861025 0.023196083 -0.10607275 0.108065285 0.050531738 -0.11184816 -0.100774854
-0.044650618 0.115021385 0.09657467 -0.15972131 -0.17937377 0.042006318 -0.122508466 -0.04741901
0.01923278 -0.13705552 -0.05949601 0.0024422165 -0.083418466 0.008025472 0.0075939363 0.09464
00000000: 645d 0bbd 43c7 fd3b d5a1 12bd 7c51 2c3d
00000010: cb5c 8ebd 0f56 85bd 98a3 163d 5ce2 46bd
00000020: 6efa c9bc 0f0d 0dbc dc61 233e e519 713c
00000030: 7344 813d 0861 b03d cf6f 7bbd b7e6 be3c
00000040: de8a 273e 4956 003e 441c ff3d 23f5 023e
00000050: d759 213e 299d 363e 69b3 153e 4483 d93d
00000060: b2e8 803c e490 98bd 3b2d 9bbc 4ce0 b3bd
00000070: 30c4 0ebc 24f2 cb3d 30c4 9b3d c300 babc
00000080: 98db 83bd c353 03be 6187 cb3d 6b37 ec3c
00000090: 0297 cdbd c094 9abc 3661 febd 464d 55bd
000000a0: e1ac 1c3d d66b b6bd e3a8 cf3d 6ea5 05be
000000b0: 1d8c dbbd 6418 fdbc a42a 07bd 0bf5 06bd
000000c0: a419 06bd 5857 2e3b 52ff cd3d 775b 67bd
000000d0: b205 50bd 4ec8 8b3d baab 113e 32d5 7bbc
000000e0: 225f 893d 65c8 96bd 1ccf dd3d 9c7e 9a3d
000000f0: ec70 08be 229b a6bd c8b5 503d 0d08 64bc
00000100: 0dea fa3d 3286 ebbd 4082 8bbd 323d 08be
00000110: ee1d d4bd 785d cebd 5c13 ebbd fa83 d7bd
00000120: 12e9 c4bc ff40 29bd da47 04be 45f6 053e
00000130: 56b5 93bc 4177 c23d e5dd 21be d95e 15be
00000140: 7466 3e3d 5396 0a3e d57b ca3d 71cd 0a3c
00000150: 02b5 38be 052a e33d 3efa c3bd 9f7c 933c
00000160: 2a8f 4abd 2ef4 5fbd 7100 e2bd 63fe 08be
00000170: 3a35 cb3d 63d2 203d e4ce a93d 3c90 e1bd
00000180: 1382 24bc 2764 a73b c6c8 5b3d d692 43bc
00000190: c3af 91bd 1b6c e23d 661a d93d 6aca a5bd
000001a0: c3d1 e7bc 94d6 c33c b58d c33d 8e2e b13d
000001b0: c72c eb3b 6830 43be a772 d43d 2f7c bd3d
000001c0: c31c 0ebe 0c7f d6bd 14d3 b33d 97b4 0abe
000001d0: c75d 13bd d7ef c5bd 7727 293e 4fc4 bf3d
000001e0: 272d d4bd 6656 06be 76bf 9c3d c8ab 293d
000001f0: 97d3 12bd ef34 733c a381 013e 7c66 473d
00000200: 2190 11be a4a7 be3b 92a4 273e c93a 413c
00000210: e18a 93bd 080b b0bd 959c 32be af73 983d
00000220: 9c72 4f3d 4bac bbbd 2eda d13d 7a6b 1dbd
00000230: 1414 70bd 33fd 60bd 30a1 2f38 e73e a83d
00000240: 2901 943c 9c82 903d 2846 bf3d 9b9e 1ebc
00000250: a9ef 83bd 2cf3 1d3e 8272 943d 252f b43d
00000260: 5f4c babd 4e54 c9bd 10c6 543d 6da9 bfbc
00000270: 8b6f 56ba 2324 cbbd b689 763d 7145 cabb
00000280: 98cc cfbd 494d 92bc 7ab5 57bd f631 013d
00000290: 6453 1b3e 7b6a e0bc 7438 36bd 07d6 00be
000002a0: a205 81bc d407 84bd 17e2 ab3d c4e5 bfbc
000002b0: d95a b4bd 817f c5bb 0dfb d9bc 5e2a 0cbe
000002c0: a5ef 21bd a9a5 3dbd e319 4f3d 5db4 623c
000002d0: 642d b7bd 07f2 9ebd bc5d c1bd 30e5 023e
000002e0: 0bf1 9cbc aa30 e1bd e0e0 16be 00a5 eabd
000002f0: b4f8 62bc 7606 383e 2990 13be 3245 81bc
00000300: 2cc5 173d 4d76 983d e2ae 283e 1dd6 adbd
00000310: eabd 90bc fac3 4bbd d6e0 e03d 5d36 023e
00000320: af15 e8bc 10a1 58bd 2ed6 ccbc 2f45 ef3c
00000330: 04fc 5a3d 4f12 65bd 9112 b03d 68c9 abbd
00000340: 9830 653d 4c5d 2e3e 1d54 0abe c349 023c
00000350: ab2e 653d bfdf c63d f293 123e 5054 943d
00000360: 94c0 abbd abea eebd 013d ae3d 6057 343e
00000370: 10d5 6dbd 6292 70bd a412 b3bd 1790 8d3d
00000380: f710 afbb ae55 37bd e1eb 283d 6c76 9cbd
00000390: 5351 e23d 356f 813d daca f63c b47e 85bd
000003a0: 6445 00be 69fe a03d b605 be3c ac3c d9bd
000003b0: 5551 dd3d 5efa 4e3d a610 e5bd 0c63 cebd
000003c0: 91e3 36bd 5590 eb3d f1c8 c53d fc8d 23be
000003d0: c2ad 37be d10e 2c3d b8e5 fabd 703a 42bd
000003e0: 108e 9d3c 4858 0cbe 17b2 73bd 980d 203b
000003f0: 4dd7 aabd 457d 033c 8ed6 f83b 9ed2 c13d

model.0.bias f4 [32]
-0.35053363 0.006990717 -0.050595954 -0.011432757 0.10185921 -0.117145404 0.034861427 0.15984589
-0.026576726 0.093294084 -0.21121022 -0.17802297 -0.2083643 -0.049039196 -0.14187303 0.0032356668
-0.13891953 -0.10959345 -0.056556955 -0.19513156 -0.27154958 -0.03198417 -0.24889669 -0.090635486
-0.11203191 -0.3116105 0.08674686 -0.1612404 -0.055327762 0.016533652 -0.29109934 -0.38036245
00000000: 2579 b3be 6212 e53b b43d 4fbd 7550 3bbc
00000010: 909b d03d eee9 efbd dbca 0e3d a4ae 233e
00000020: 6fb7 d9bc f810 bf3d 7e47 58be a74b 36be
00000030: 735d 55be 53dd 48bd 2a47 11be 7b0d 543b
00000040: ec40 0ebe 8872 e0bd 44a8 67bd 91d0 47be
00000050: 8c08 8bbe d501 03bd c6de 7ebe 199f b9bd
00000060: fc70 e5bd 698b 9fbe 56a8 b13d 341c 25be
00000070: 5d9f 62bd 9571 873c f90a 95be debe c2be

model.2.weight f4 [32, 32, 5, 5]
-0.008545367 -0.032210093 -0.00010067915 0.0060084444 -0.020405114 -0.012743697 0.020292107 -0.03818926
-0.01873009 -0.02097347 -0.017496882 0.012087819 -0.025131052 -0.022941833 -0.005888592 -0.015946226
0.021804769 -0.01392338 -0.013488913 -0.020357667 -0.03222978 -0.007918162 -0.016317274 -0.03184541
0.021050714 0.0010306624 0.0051200404 -0.032752104 -0.014416977 0.0029576016 -0.011459187 -0.019552235
0.00089626684 0.001283518 -0.033973858 0.028197473 -0.034584783 0.030745402 -0.006611573 0.019380076
-0.026819889 0.0005916403 0.009592628 -0.03306607 -0.029300248 -0.0038652562 -0.018033005 -0.02895109
0.026375191 -0.018512152 0.019336455 -0.004497737 0.019070188 -0.026409607 -0.027601609 0.005846302
0.007971779 0.015617304 -0.021078322 0.024591489 0.023189293 -0.015026543 -0.030244865 0.011098073
-0.035557345 -0.027824601 -0.0064054704 0.016776321 -0.031940103 -0.022630472 -0.011955619 0.012361135
0.021059591 0.009059918 0.007423697 -0.023378367 0.016379384 -0.042542137 0.001928361 -0.031634506
-0.018582426 0.00069061114 0.025424706 0.028655274 0.014339216 0.022832481 -0.025836293 0.027329225
-0.012898132 0.030146917 -0.019358879 0.038005974 0.00016012513 -0.03439712 -0.038220704 0.03395189
-0.0057618776 -0.024222616 0.013085899 -0.011687853 0.03676012 0.010211861 0.018847385 0.01959553
0.011990643 0.02455327 0.042207338 -0.000966239 0.015787011 -0.014159361 0.031208552 0.008613991
-0.0072540515 0.024191646 -0.0062206727 -0.021164503 -0.0055545885 -0.0075893705 0.02235637 0.004651692
0.033241577 0.024356816 -0.00049840024 0.021101806 0.0061436975 -0.020072307 0.018256983 0.0030272268
0.024695758 0.013512449 0.0067667076 -0.0024611698 0.007421735 0.008005598 0.023955252 -0.020203112
0.026839731 0.018046077 -0.0067170006 0.022463603 0.036070585 0.030069029 -0.029267503 -0.017754752
-0.03101708 -0.017989468 -0.03184499 -0.010112122 0.028576706 -0.00025586615 0.006984594 0.026279029
-0.018434761 -0.020246975 -0.026713315 0.04687722 0.03614033 -0.010822997 -0.0036272553 0.00091414386
0.043407883 0.038189188 -0.0330202 -0.0016727876 -0.026662275 0.024470363 -0.0012109407 0.007262228
-0.012845438 -0.019246373 -0.01710222 -0.019498171 -0.03614144 0.026528787 -0.017260425 -0.0067282366
-0.027890831 -0.005628052 0.018739581 0.01383045 0.012248837 -0.03352434 0.012762602 -0.00462652
0.021270927 0.0022430227 0.023637585 -0.030210475 -0.017259605 0.021504445 0.0010976938 0.01762526
0.0054868683 0.010768839 0.028583586 -0.0011789835 -0.022670759 -0.0070815296 0.027659226 0.017109424
-0.024999723 -0.00013655123 -0.0064703254 0.013742202 0.029953757 0.013588404 0.039748237 0.00826806
-0.020335663 0.005223494 0.003941949 -0.02266615 0.024308493 -0.02474731 -0.038743164 0.002163623
0.023605764 0.029417463 -0.015915362 0.024104325 0.009954942 0.015029294 0.010170351 -0.032241337
0.0009071198 -0.01984866 0.006927883 -0.013844218 0.017359264 0.015707318 -0.022146143 0.033300832
-0.014675745 -0.011914921 0.012504775 0.008018612 0.015861472 0.014677526 0.019608421 0.012266797
0.043493595 0.03190553 0.01801331 0.0016740068 -0.0034048257 0.011200461 0.0077505745 0.031692773
-0.03256998 0.0036004374 0.015940018 0.016057827 -0.017941775 -0.0018730848 0.009178441 -0.007697073
00000000: de01 0cbc bbee 03bd b523 d3b8 7ce2 c43b
00000010: a028 a7bc f0ca 50bc a23b a63c 576c 1cbd
00000020: d96f 99bc 8ed0 abbc 9f55 8fbc fd0b 463c
00000030: a3df cdbc 83f0 bbbc 17f5 c0bb a9a1 82bc
00000040: ea9f b23c e31e 64bc 9a00 5dbc 1fc5 a6bc
00000050: 6003 04bd 2ebb 01bc ceab 85bc 5570 02bd
00000060: 8c72 ac3c 4b17 873a 03c6 a73b 1227 06bd
00000070: 2f35 6cbc 52d4 413b 50bf 3bbc 022c a0bc
00000080: 73f3 6a3a b83b a83a 2c28 0bbd 63fe e63c
00000090: c6a8 0dbd c8dd fb3c e5a5 d8bb f7c2 9e3c
000000a0: 62b5 dbbc 4f18 1b3a 662a 1d3c 4a70 07bd
000000b0: 1307 f0bc 3d50 7dbb f4b9 93bc d62a edbc
000000c0: c910 d83c cca6 97bc 7c67 9e3c c161 93bb
000000d0: 1539 9c3c f658 d8bc c51c e2bc 5692 bf3b
000000e0: 119c 023c b8df 7f3c 72ac acbc 1774 c93c
000000f0: 79f7 bd3c e431 76bc 14c4 f7bc b1d4 353c
00000100: 94a4 11bd 6bf0 e3bc fbe4 d1bb 7f6e 893c
00000110: a0d3 02bd 8a63 b9bc 80e1 43bc 5c86 4a3c
00000120: 2a85 ac3c 0d70 143c 7c42 f33b fd83 bfbc
00000130: 0f2e 863c aa40 2ebd 0fc1 fc3a 2f93 01bd
00000140: 2c3a 98bc 210a 353a 7947 d03c 77be ea3c
00000150: 08ef 6a3c 2f0b bb3c a2a6 d3bc 8ae1 df3c
00000160: b052 53bc abf6 f63c 8396 9ebc 27ac 1b3d
00000170: 43e7 2739 ffe3 0cbd 508d 1cbd 2311 0b3d
00000180: 22ce bcbb 826e c6bc 3d66 563c 697e 3fbc
00000190: c891 163d a64f 273c d565 9a3c ce86 a03c
000001a0: 6774 443c f023 c93c 9ae1 2c3d 344b 7dba
000001b0: c353 813c aafc 67bc 14a9 ff3c b221 0d3c
000001c0: 65b3 edbb 8f2d c63c c9d6 cbbb 2e61 adbc
000001d0: 4403 b6bb 41b0 f8bb b524 b73c 396d 983b
000001e0: 5228 083d f287 c73c 13a7 02ba b2dd ac3c
000001f0: 1251 c93b ae6e a4bc ab8f 953c 7064 463b
00000200: c24e ca3c 5263 5d3c 42bb dd3b 944b 21bb
00000210: 0732 f33b e929 033c ce3d c43c ff80 a5bc
00000220: ffde db3c 5ed5 933c 491a dcbb 9705 b83c
00000230: c0be 133d 5353 f63c 67c2 efbc 6a72 91bc
00000240: 8817 febc a65e 93bc e46f 02bd 50ad 25bc
00000250: b219 ea3c c625 86b9 05df e43b 1e47 d73c
00000260: 7f04 97bc fcdc a5bc e2d5 dabc 5402 403d
00000270: e207 143d f152 31bc 3fb7 6dbb 28a3 6f3a
00000280: 77cc 313d 446c 1c3d 3040 07bd 7041 dbba
00000290: d86a dabc 1276 c83c 6db8 9eba fcf7 ed3b
000002a0: ac75 52bc 92aa 9dbc f419 8cbc a1ba 9fbc
000002b0: 0c09 14bd e652 d93c bc65 8dbc 8a78 dcbb
000002c0: 507b e4bc 866b b8bb c083 993c 1d99 623c
000002d0: 59af 483c d150 09bd 3c1a 513c 109a 97bb
000002e0: 5e40 ae3c adff 123b 9ca3 c13c f57b f7bc
000002f0: 0464 8dbc 172a b03c 7ee0 8f3a d962 903c
00000300: 30cb b33b c96f 303c 2028 ea3c 1f88 9aba
00000310: 07b8 b9bc 2d0c e8bb 9a95 e23c 1029 8c3c
00000320: 38cc ccbc 312f 0fb9 0605 d4bb f926 613c
00000330: 9561 f53c e6a1 5e3c 0ccf 223d c276 073c
00000340: fa96 a6bc d829 ab3b 772b 813b 5dae b9bc
00000350: 9b22 c73c dfba cabc 27b1 1ebd 92cb 0d3b
00000360: e060 c13c e4fc f03c ef60 82bc 6f76 c53c
00000370: 0e1a 233c 6e3d 763c 8ba1 263c 7e0f 04bd
00000380: c7cb 6d3a a899 a2bc 4b03 e33b dcd2 62bc
00000390: 0435 8e3c a2ac 803c d46b b5bc 7466 083d
000003a0: 8972 70bc cd36 43bc d4e0 4c3c 7f60 033c
000003b0: ebef 813c 027a 703c d7a1 a03c adfa 483c
000003c0: 5726 323d 5faf 023d a690 933c 596a db3a
000003d0: 7f23 5fbb 2382 373c 88f8 fd3b 48d0 013d
000003e0: 1968 05bd 51f5 6b3b a494 823c b48b 833c
000003f0: a1fa 92bc 4c82 f5ba 2c61 163c ba37 fcbb

model.2.bias f4 [32]
0.04280735 -0.070428334 0.0047727446 0.031754147 -0.024182644 0.023134254 -0.020374702 0.032817785
0.03699186 -0.05939039 -0.050761953 -0.05904933 -0.15601982 -0.015583796 -0.14917685 -0.06699568
0.05488664 -0.090123326 -0.08323918 0.003950954 -0.028437495 0.080689974 -0.065165214 0.00064860855
-0.10768217 -0.07158411 -0.022398906 0.03697222 -0.042164207 -0.023661321 -0.08282144 -0.04587538
00000000: c356 2f3d bb3c 90bd af64 9c3b a310 023d
00000010: ae1a c6bc 0c84 bd3c d9e8 a6bc f16b 063d
00000020: c784 173d 5643 73bd c4eb 4fbd b6dd 71bd
00000030: a9c3 1fbe 2e53 7fbc d1c1 18be 0835 89bd
00000040: d0d0 603d 9492 b8bd 4e79 aabd 0177 813b
00000050: c0f5 e8bc c940 a53d 5775 85bd 6207 2a3a
00000060: 7888 dcbd b19a 92bd e97d b7bc 2f70 173d
00000070: 60b4 2cbd 63d5 c1bc 4a9e a9bd d3e7 3bbd

model.4.weight f4 [64, 32, 5, 5]
-0.026281802 0.011037009 0.013644983 -0.010797985 -0.012108545 -0.020599741 -0.028648758 -0.034536924
-0.006386881 -0.015234096 -0.012228893 -0.00022051978 0.026096405 -0.0046894713 -0.02716745 -0.021216484
0.015670411 0.006641515 0.01987018 -0.0050051017 -0.021316538 -0.013510633 -0.012620642 0.029111665
-0.008059688 -0.006395534 -0.0007389732 -0.0051515796 -0.0002629788 0.011854849 -0.008851741 -0.010619324
0.0041885674 -0.016098874 0.034736045 0.012263747 -0.039696276 -0.0025535664 -0.028551416 -0.01882827
0.01049516 0.022313515 0.00038403244 0.0269394 0.014271293 0.019443441 0.016521495 0.03189693
-0.004841567 -0.024585944 0.028597957 0.02848145 -0.014859673 -0.047150988 -0.018939855 0.04048649
0.045839023 0.011836764 -0.050144568 0.0050256196 0.028765997 0.010258378 0.014357367 0.025009394
0.004563192 0.00395268 0.003582232 0.0127114775 0.024776118 0.019032879 0.013318315 0.040272057
0.015768187 0.07734725 0.017840069 -0.012026507 0.029289423 0.0046683718 -0.010214235 0.017960468
0.02224533 -0.0010273152 0.035661314 0.0006946014 -0.039120413 0.029240703 -0.029325956 -0.0043295515
-0.017559143 -0.0046393494 0.0017802485 0.01967261 -0.03765668 -0.026004145 0.034593776 -0.012388802
-0.010551522 0.016143227 -0.0011810425 -0.011345308 0.029600192 0.014781323 0.028298024 0.017883876
0.042324245 -0.023582436 -0.026334703 0.04432243 0.078597896 0.02166381 0.028281432 0.040905833
0.04527521 0.03765223 0.00062274555 0.004417301 0.013075647 0.019234736 0.024995685 0.012370138
-0.008853376 -0.01367883 -0.021971006 -0.0053114756 -0.052429177 0.007840982 -0.030327762 -0.01581989
0.016458988 0.029374078 -0.01978388 0.012511469 -0.032883726 -0.04304159 -0.015905822 0.008246145
-0.04600481 -0.058475517 -0.023887863 -0.0020497926 -0.029462347 -0.015020357 -0.035795473 -0.03624002
-0.0053777834 -0.024398781 0.009632276 -0.01673048 0.02064221 -0.0036667024 0.0044247443 0.01062691
0.019335298 0.029933114 0.016625958 0.036651805 0.036280014 0.017224163 0.056144193 -0.014473821
-0.037420943 0.009020616 0.029369121 0.019171236 0.027978197 0.009594937 0.052108068 0.0473869
0.047276195 -0.012069681 -0.045651343 -0.0016752726 -0.05210235 -0.012156539 -0.011776867 0.018157791
0.009721376 0.0060830037 -0.005351346 0.0064059915 0.0070081637 -0.023222977 0.0010452083 -0.016814841
0.01356978 -0.0125329625 0.02120916 0.0030421172 0.01430962 -0.0038208999 0.025965786 0.020719202
-0.014367917 0.02526436 -0.030073183 -0.0154741155 0.0056601134 -0.0035272194 -0.00081529294 -0.045476556
0.013079989 0.008291103 -0.036157012 -0.00167292 0.033481017 -0.005490931 0.0060665812 -0.05601367
0.003763302 -0.018076804 0.020220447 0.0047626235 0.006504166 0.014560597 -0.005386071 0.007459029
0.00946531 0.029638305 0.019023186 -0.031868763 0.03752691 0.05228129 0.036812373 -0.038753472
-0.04308781 -0.016543256 0.0135100605 0.021187952 0.007521669 0.03419399 0.033554368 0.040907875
0.030047616 -0.02561424 -0.00092169445 -0.050279282 -0.0032409006 -0.04560069 0.009183074 0.026087735
-0.004658928 -0.041448142 -0.015819447 0.018489122 0.021702375 -0.00528202 -0.0132318 0.023605898
0.012791277 -0.0012208293 0.014276337 0.0009607694 -0.018936677 -0.024171878 0.028695548 -0.0047722207
00000000: ef4c d7bc 92d4 343c 358f 5f3c 08ea 30bc
00000010: eb62 46bc cac0 a8bc cdb0 eabc 9776 0dbd
00000020: 0b49 d1bb 6e98 79bc b25b 48bc 543b 67b9
00000030: 21c8 d53c 23aa 99bb 468e debc 31ce adbc
00000040: 3c5f 803c 11a1 d93b cac6 a23c d601 a4bb
00000050: 05a0 aebc b45b 5dbc cfc6 4ebc 967b ee3c
00000060: c80c 04bc a191 d1bb a7b7 41ba 95ce a8bb
00000070: 6be0 89b9 d73a 423c e506 11bc acfc 2dbc
00000080: 4040 893b c9e1 83bc 6247 0e3d e2ed 483c
00000090: 9098 22bd bc59 27bb a9e4 e9bc be3d 9abc
000000a0: e4f3 2b3c d5ca b63c f657 c939 04b0 dc3c
000000b0: 24d2 693c da47 9f3c 1658 873c 5ba6 023d
000000c0: 02a6 9ebb 7668 c9bc 4346 ea3c ee51 e93c
000000d0: fc75 73bc 6521 41bd c127 9bbc 29d5 253d
000000e0: b3c1 3b3d fdee 413c 6464 4dbd f4ad a43b
000000f0: aba6 eb3c c212 283c 293b 6b3c 80e0 cc3c
00000100: d486 953b 7c85 813b e1c3 6a3b cd43 503c
00000110: 49f7 ca3c d7ea 9b3c 1035 5a3c 50f4 243d
00000120: 492c 813c 3c68 9e3d 5625 923c d40a 45bc
00000130: 5ff0 ef3c 24f9 983b 9b59 27bc d521 933c
00000140: d73b b63c faa6 86ba 9911 123d e915 363a
00000150: ba3c 20bd 338a ef3c fd3c f0bc e9de 8dbb
00000160: 31d8 8fbc af05 98bb 3a57 e93a 7428 a13c
00000170: e43d 1abd a506 d5bc 34b2 0d3d 67fa 4abc
00000180: 4ae0 2cbc cd3e 843c 36cd 9aba ace1 39bc
00000190: 1a7c f23c 5d2d 723c 42d1 e73c 3581 923c
000001a0: 305c 2d3d f42f c1bc e0bb d7bc 708b 353d
000001b0: eff7 a03d 4d78 b13c 76ae e73c e08c 273d
000001c0: 8072 393d 3a39 1a3d bf3f 233a 02bf 903b
000001d0: 3d3b 563c 2a92 9d3c c0c3 cc3c 1fac 4a3c
000001e0: c00d 11bc 2c1d 60bc 8afc b3bc e30b aebb
000001f0: fabf 56bd 7677 003c ed71 f8bc b798 81bc
00000200: 00d5 863c e8a1 f03c ce11 a2bc e8fc 4c3c
00000210: 16b1 06bd 614c 30bd ed4c 82bc d71a 073c
00000220: 8a6f 3cbd 0684 6fbd 7bb0 c3bc d055 06bb
00000230: 055b f1bc f217 76bc 469e 12bd 6a70 14bd
00000240: 1e38 b0bb f4df c7bc b2d0 1d3c 5c0e 89bc
00000250: da19 a93c 0f4d 70bb 72fd 903b 7e1c 2e3c
00000260: 0f65 9e3c 4a36 f53c 2933 883c 3420 163d
00000270: 5a9a 143d b019 8d3c 74f7 653d 9b23 6dbc
00000280: b446 19bd 35cb 133c 8397 f03c ff0c 9d3c
00000290: 8832 e53c 1534 1d3c 456f 553d c418 423d
000002a0: afa4 413d e9bf 45bc e7fc 3abd d294 dbba
000002b0: 4669 55bd 382c 47bc c3f3 40bc a6bf 943c
000002c0: 6846 1f3c ef53 c73b 585a afbb 5ae9 d13b
000002d0: bda4 e53b 1d3e bebc 5fff 883a 47bf 89bc
000002e0: c853 5e3c 0e57 4dbc d5be ad3c 425e 473b
000002f0: e572 6a3c 1068 7abb 33b6 d43c 51bb a93c
00000300: 6967 6bbc 34f7 ce3c 095c f6bc 2587 7dbc
00000310: 7978 b93b ec28 67bb 62b9 55ba a045 3abd
00000320: 734d 563c 68d7 073c 6019 14bd e145 dbba
00000330: 6423 093d 45ed b3bb 2cca c63b 976e 65bd
00000340: bba1 763b ce15 94bc 5aa5 a53c c80f 9c3b
00000350: e620 d53b 928f 6e3c a37d b0bb df6a f43b
00000360: 6314 1b3c 08cc f23c 83d6 9b3c d288 02bd
00000370: d1b5 193d e824 563d 92c8 163d f6bb 1ebd
00000380: d87c 30bd b985 87bc 4d59 5d3c 5b92 ad3c
00000390: 5578 f63b ff0e 0c3d 4e70 093d 048f 273d
000003a0: 6b26 f63c f4d4 d1bc de9d 71ba a6f1 4dbd
000003b0: 4a65 54bb cac7 3abd 9b74 163c f2b5 d53c
000003c0: eca9 98bb 87c5 29bd c997 81bc 8076 973c
000003d0: 2ec9 b13c cc14 adbb 31ca 58bc 2861 c13c
000003e0: 8192 513c 3c04 a0ba 4ce7 693c 25dc 7b3a
000003f0: 1721 9bbc 1a04 c6bc ed12 eb3c 4a60 9cbb

model.4.bias f4 [64]
-0.05496641 -0.011407555 -0.028322743 -0.0076627815 0.024329338 0.009287578 0.009507998 0.07075478
-0.046329442 0.0030941989 -0.020456871 -0.034674376 -0.0958167 -0.002658782 -0.026388653 -0.052533407
-0.04982549 0.018767433 -0.027995812 0.032081228 -0.02183185 0.0146600995 0.022940073 0.016483739
-0.01974196 0.05573102 -0.046830475 -0.05579912 0.0074740117 0.013909504 -0.07291525 0.016762527
-0.035768595 -0.036364384 0.060730904 0.015273179 0.0486399 0.040576346 0.038466297 -0.017448263
0.07242587 -0.015440138 0.015846776 -0.0025889801 -0.012949159 0.019319186 0.023486527 0.046846606
-0.031590957 -0.032784183 0.0077804946 0.025095904 0.006179086 -0.032029532 -0.00254911 0.03753468
-0.04158268 -0.0034091976 0.07259838 0.00021855216 0.024267409 0.021659156 -0.028067613 -0.006014112
00000000: 7524 61bd c1e6 3abc 1905 e8bc 1218 fbbb
00000010: 524e c73c ed2a 183c 6fc7 1b3c e2e7 903d
00000020: f1c3 3dbd 0bc8 4a3b 2b95 a7bc b806 0ebd
00000030: 8c3b c4bd f63e 2ebb 042d d8bc 452d 57bd
00000040: d015 4cbd 29be 993c 7957 e5bc 9b67 033d
00000050: b5d8 b2bc ea30 703c d2ec bb3c e808 873c
00000060: e4b9 a1bc 3646 643d 50d1 3fbd 9e8d 64bd
00000070: 8ee8 f43b b0e4 633c 9754 95bd 9151 893c
00000080: 1782 12bd d2f2 14bd f8c0 783d 5b3c 7a3c
00000090: a23a 473d 6233 263d d68e 1d3d a9ef 8ebc
000000a0: 0454 943d a2f8 7cbc 19d1 813c e1ab 29bb
000000b0: b628 54bc 4543 9e3c d166 c03c 3ae2 3f3d
000000c0: 8565 01bd b548 06bd 85f3 fe3b ed95 cd3c
000000d0: ee79 ca3b 6631 03bd f80e 27bb f7bd 193d
000000e0: 9a52 2abd d86c 5fbb 76ae 943d 262b 6539
000000f0: 72cc c63c 8b6e b13c 0dee e5bc 0712 c5bb

model.7.weight f4 [64, 1024]
-0.02898089 0.0014869113 -0.004807714 0.02496254 0.020821843 0.004905739 -0.005564706 -0.028209915
0.011255585 -0.00798806 0.01163636 -0.017255826 0.00506075 0.017648421 0.041133817 -0.010694645
0.023905633 -0.020962343 0.01940785 -0.012857662 0.031118734 0.000662831 -0.0050804005 0.029548407
0.017627433 -0.017418962 -0.029949073 0.0286434 -0.0030201264 0.00787312 0.01379472 -0.015578767
-0.0031750232 -0.0061536264 0.00012586777 0.034658127 0.010986922 0.020565145 -0.007310171 0.009327414
0.023731705 0.009729138 0.0045557865 -0.017349266 0.013195271 -0.022233918 0.010009828 -0.009864771
0.001972768 -0.021506613 0.0071277535 0.015653692 -0.021387722 0.0034682925 0.0063543934 0.00044602522
-0.04339899 -0.023140253 0.0113101695 0.0059498423 0.015564983 0.010803464 0.010703882 -0.030960912
-0.012056182 0.007630871 -0.014025493 0.010330254 0.014893223 -0.018937185 -0.031887766 -0.018480152
-0.0059161126 -0.021996887 -0.013498165 -0.001696834 -0.00021824666 0.033999808 0.03197692 0.0228901
-0.032154996 -0.0025317194 0.032399617 -0.02641231 0.038063657 0.015332317 -0.037911057 0.021358969
-0.0018391949 -0.028006515 0.001964807 -0.0060209353 0.022304775 0.0053823898 0.028524991 0.015535123
0.0190481 0.019516036 -0.009482439 -0.0016696135 0.017761398 0.0052669547 -0.013148597 0.017779633
-0.0021511386 -0.0025722226 -0.007740917 -0.0023155338 0.017176064 0.014408766 0.0069445246 -0.01199278
0.012695431 -0.0032903913 -0.03223093 0.009915757 0.01061008 0.042060643 -0.017915482 -0.0065506687
-0.006716749 -0.029839624 -0.029537277 0.012404442 -0.010755473 -0.009469577 0.023429586 0.026422286
-0.026626771 0.005735488 -0.021347117 0.016428322 0.025610792 -0.02984738 0.016188141 0.009479067
-0.015631123 0.04194539 -0.02271654 -0.030368885 -0.02377659 -0.018942673 0.007732928 -0.009533955
-0.009496671 -0.028618446 -0.014895809 0.0038384865 0.021452472 0.014543291 -0.019141821 -0.016812595
-0.004394197 0.013234487 0.017313821 -0.024004424 0.04138427 0.025222393 0.016268585 0.027179142
-0.01479668 -0.009568574 0.043485943 0.004445548 0.012419414 0.014109061 0.003967753 0.005961235
0.027194602 -0.030107416 -0.009856324 0.015287222 0.0019011704 -0.004604599 -0.03401112 -0.033687152
-0.025825167 0.01167036 -0.012555123 0.0144154355 0.023864893 0.010816779 -0.010797475 0.0010362699
0.02592309 0.020373035 -0.016253015 -0.0070969313 0.032679006 0.0028255482 -0.021449862 -0.0057123206
-0.022767853 0.008981831 0.01607519 0.007134027 -0.029771375 0.023763046 0.018767377 0.026678752
0.0105163595 -0.0065340684 0.022447603 -0.010125385 0.0104626585 -0.022950672 -0.017296158 -0.014573225
-0.008107562 -0.004671017 -0.018522182 0.018582394 -0.028478732 -0.021254566 0.003315774 -0.02634422
-0.033880472 0.023480676 -0.02980042 -0.013074421 0.013580652 -0.015893279 0.034645483 0.0016909664
0.03022309 -0.0069293273 0.042066034 -0.0101679135 -0.006217021 -0.036481198 -0.03060429 -0.025793334
0.03233618 -0.007388053 -0.02537237 -0.015753321 0.015500144 -0.012264425 0.014637201 0.010305851
0.005004081 0.01395929 -0.027200272 -0.024718976 0.013185253 0.0031264876 -0.008765413 -0.021241458
-0.024815746 -0.009273883 0.018477157 0.012978177 0.0070086564 0.005002339 0.025101693 0.017970033
00000000: 5569 edbc 77e4 c23a 078a 9dbb 3e7e cc3c
00000010: 9292 aa3c 52c0 a03b 2358 b6bb 7b18 e7bc
00000020: 5869 383c 5ae0 02bc 6ea6 3e3c 175c 8dbc
00000030: a6d4 a53b 6c93 903c ef7b 283d 9838 2fbc
00000040: bfd5 c33c 38b9 abbc 36fd 9e3c f1a8 52bc
00000050: b7ec fe3c d6c1 2d3a 7d79 a6bb 800f f23c
00000060: 6867 903c 36b2 8ebc c257 f5bc 90a5 ea3c
00000070: 50ed 45bb 42fe 003c 4003 623c 163e 7fbc
00000080: 0d14 50bb 5ca4 c9bb 5ffb 0339 aef5 0d3d
00000090: 7e02 343c 3c78 a83c 298a efbb 03d2 183c
000000a0: fe68 c23c f666 1f3c b548 953b 0c20 8ebc
000000b0: fa30 583c e823 b6bc 4300 243c d99f 21bc
000000c0: 8e49 013b a32e b0bc ee8f e93b 2c3c 803c
000000d0: 4e35 afbc 4b4c 633b 8438 d03b 7ed8 e939
000000e0: 24c3 31bd a190 bdbc 4a4e 393c e5f6 c23b
000000f0: 4504 7f3c 0301 313c 565f 2f3c bda1 fdbc
00000100: 4b87 45bc 630c fa3b 2ecb 65bc 3a40 293c
00000110: b402 743c 2822 9bbc bf9c 02bd b063 97bc
00000120: f3db c1bb d132 b4bc 6827 5dbc 4d68 deba
00000130: 24d9 64b9 6243 0b3d 3bfa 023d 0584 bb3c
00000140: f5b4 03bd 34eb 25bb 76b5 043d a15e d8bc
00000150: a3e8 1b3d 6634 7b3c a048 1bbd 01f9 ae3c
00000160: 2411 f1ba eb6d e5bc fec3 003b 444b c5bb
00000170: 81b8 b63c c25e b03b 3ead e93c 0787 7e3c
00000180: c30a 9c3c 18e0 9f3c 3b5c 1bbc efd6 daba
00000190: 5a80 913c 6b96 ac3b 376d 57bc 98a6 913c
000001a0: 1efa 0cbb bc92 28bb 85a7 fdbb 36c0 17bb
000001b0: d1b4 8c3c bf12 6c3c e58e e33b 5d7d 44bc
000001c0: 7f00 503c 9ba3 57bb 9404 04bd b375 223c
000001d0: e7d5 2d3c c847 2c3d 7dc3 92bc fea6 d6bb
000001e0: 2d18 dcbb 3a72 f4bc 29f8 f1bc 003c 4b3c
000001f0: b937 30bc 4926 1bbc 67ef bf3c 8d73 d83c
00000200: 6320 dabc c3f0 bb3b 26e0 aebc b094 863c
00000210: b9cd d13c 7e82 f4bc fe9c 843c 174e 1b3c
00000220: d70c 80bc eece 2b3d 0a18 babc 2bc8 f8bc
00000230: 20c7 c2bc aa2d 9bbc 8064 fd3b 4e34 1cbc
00000240: ed97 1bbc 3b71 eabc 8d0d 74bc 1e8f 7b3b
00000250: 18bd af3c fc46 6e3c 4fcf 9cbc 91ba 89bc
00000260: 32fd 8fbb 76d5 583c b7d5 8d3c eda4 c4bc
00000270: 8d82 293d 319f ce3c b245 853c cba6 de3c
00000280: c66d 72bc 82c5 1cbc 511e 323d f6ab 913b
00000290: cc7a 4b3c b129 673c ed03 823b 7756 c33b
000002a0: 37c7 de3c d4a3 f6bc 6b7c 21bc 4277 7a3c
000002b0: b130 f93a 2de2 96bb 3f4f 0bbd 8afb 09bd
000002c0: 4d8f d3bc 0a35 3f3c 01b4 4dbc b82e 6c3c
000002d0: 4f80 c33c dc38 313c e5e7 30bc 73d3 873a
000002e0: a95c d43c 5ae5 a63c 0b25 85bc 608d e8bb
000002f0: 6cda 053d d52c 393b 9fb7 afbc 6b2e bbbb
00000300: a683 babc 8828 133c 1eb0 833c 8ec4 e93b
00000310: 19e3 f3bc b8aa c23c 0bbe 993c 668d da3c
00000320: cf4c 2c3c bd1b d6bb 09e4 b73c f1e4 25bc
00000330: 926b 2b3c 0c03 bcbc acb0 8dbc 89c4 6ebc
00000340: 94d5 04bc 550f 99bb d5bb 97bc 1b3a 983c
00000350: 3b4c e9bc 0e1e aebc 754d 593b d5cf d7bc
00000360: 40c6 0abd 8c5a c03c 0320 f4bc 1936 56bc
00000370: 6281 5e3c 9f32 82bc 6ce8 0d3d 6ba3 dd3a
00000380: 6a96 f73c 690f e3bb 6f4d 2c3d 5297 26bc
00000390: 27b8 cbbb 4f6d 15bd d9b5 fabc 8b4c d3bc
000003a0: f172 043d 7b17 f2bb b7d9 cfbc 1c0d 81bc
000003b0: 51f4 7d3c baf0 48bc dfd0 6f3c dfd9 283c
000003c0: 46f9 a33b 82b5 643c 1bd3 debc 737f cabc
000003d0: f606 583c c2e5 4c3b cf9c 0fbc 9102 aebc
000003e0: 644a cbbc 7cf1 17bc 685d 973c 6ba2 543c
000003f0: dfa8 e53b a9ea a33b 11a2 cd3c e435 933c

model.7.bias f4 [64]
0.037331775 -0.016474841 0.050260924 -0.05705383 0.05475003 -0.030022739 0.037191927 -0.00023287957
-0.0033299008 -0.003775822 0.023088448 0.022487963 -0.035072815 0.009926523 -0.004567081 -0.0001493844
0.06461791 -0.01842772 0.0062033334 0.018244034 0.049329404 -0.035679743 -0.01511518 0.013983427
-0.006889299 0.00052305695 0.05801633 0.010322685 0.017828498 -0.011702526 0.0022312466 0.051409118
-0.001916438 -0.02505966 -0.05154227 -0.0029919161 0.0414361 0.03587286 0.024457434 0.026261725
0.017344499 -0.020674078 -0.016693514 -0.009857126 0.011963742 -0.05192055 0.035395186 0.013722084
-0.0052800714 -0.01810914 -0.0032682477 -0.018308548 0.061171502 0.0054178983 0.027936915 0.05316778
-0.000987572 0.036622964 0.031181298 0.041854624 -0.007822425 0.03149187 -0.03417359 0.0409956
00000000: 34e9 183d 3ff6 86bc 66de 4d3d 47b1 69bd
00000010: 9141 603d 3ff2 f5bc 9056 183d 2231 74b9
00000020: 773a 5abb c873 77bb fc23 bd3c ad38 b83c
00000030: 83a8 0fbd dba2 223c 74a7 95bb 12a4 1cb9
00000040: 6556 843d bbf5 96bc 5545 cb3b 8374 953c
00000050: a10d 4a3d ec24 12bd a9a5 77bc be1a 653c
00000060: a1bf e1bb c21d 093a 88a2 6d3d 7b20 293c
00000070: 120d 923c f4bb 3fbc 1b3a 123b 5e92 523d
00000080: fd30 fbba eb49 cdbc fd1d 53bd 0614 44bb
00000090: e6b8 293d 6cef 123d f55a c83c d422 d73c
000000a0: 0d16 8e3c af5c a9bc d6c0 88bc c87f 21bc
000000b0: 9203 443c a5aa 54bd 8bfa 103d 98d2 603c
000000c0: 7304 adbb 9f59 94bc 1930 56bb cffb 95bc
000000d0: f88e 7a3d a088 b13b f5db e43c 75c6 593d
000000e0: 6b71 81ba f601 163d ec6f ff3c c16f 2b3d
000000f0: a129 00bc 9efd 003d 9bf9 0bbd 01eb 273d

model.8.weight f4 [10, 64]
-0.009516708 -0.054586697 0.042315695 0.120535 -0.025203032 0.12980533 0.08552166 0.14000303
0.08925671 0.08963642 -0.06266483 0.07752214 0.13486746 0.10526268 0.069437906 0.06933437
0.1268326 0.1523627 -0.0905445 0.1459754 0.058029793 -0.17893837 -0.08930275 0.17587939
0.008826143 0.14606479 -0.14489351 0.036671784 -0.17561896 -0.12997068 0.08295377 0.16681726
-0.13286613 -0.08078104 -0.016385265 0.056076676 0.1576313 -0.17359893 -0.11779885 0.08967758
0.025683185 -0.15283696 0.11671088 0.09749996 -0.051132232 -0.15478136 -0.03803516 0.14657973
0.18480614 -0.15191202 0.11522054 0.003937024 -0.1429737 -0.035395153 -0.040545437 0.15663894
-0.130068 0.17425042 -0.030865569 -0.089610115 0.023721978 0.0106962 -0.16159132 -0.06705758
0.112890616 -0.007402042 -0.17086913 0.19110656 -0.015103769 0.15371811 -0.14271978 0.032250665
-0.10069054 -0.13416235 -0.07914088 -0.11782327 -0.22198425 0.08286281 -0.014915957 0.0584897
-0.17130168 0.07489966 -0.18291916 -0.15991737 -0.19415042 -0.035241626 0.112145275 -0.07137672
-0.12684219 -0.046881683 -0.14284322 0.05609922 0.16912025 0.04721215 -0.17563483 -0.17380564
-0.16261314 -0.008494963 -0.05654773 0.050599776 -0.06387465 0.171289 -0.08133049 0.10256073
-0.1527596 -0.025517166 -0.16144659 0.10803297 0.07665921 0.029895011 -0.043382373 0.16850659
0.10784806 0.16065618 0.027869655 0.091368705 -0.20664714 0.03947948 -0.07296722 -0.10339217
0.10840405 -0.114935935 -0.13250388 -0.08910285 0.14184877 -0.23375346 -0.022990713 -0.11051919
-0.01776725 0.08636663 0.01898242 -0.14662042 0.03351354 0.059438758 -0.05885741 0.1062809
-0.08047677 -0.14223593 -0.047609165 0.1454732 0.20142235 0.009243302 0.0019827648 0.11623303
0.17669319 0.053334843 0.17544216 -0.004231356 -0.0894264 0.030859202 0.017286262 -0.14032197
-0.16720802 -0.10544179 -0.09133225 -0.14605871 0.037415847 -0.07225123 -0.08331622 0.15143447
-0.104214855 -0.1254036 -0.064875685 0.10358555 -0.05922703 -0.08894972 -0.13926184 -0.10692172
0.17506175 0.06779053 0.042311687 0.09769993 -0.17022868 -0.111001946 0.17526756 -0.047020074
-0.05812561 -0.17104906 -0.079501614 0.06555858 0.08801867 -0.14144681 0.061920367 0.03587604
-0.0091022095 0.16285191 0.1387145 -0.012418802 0.15127 0.040529925 -0.052242354 -0.12498795
0.024766479 0.1127428 0.04095972 -0.13890812 -0.02643615 -0.12924138 0.10607747 -0.020006105
0.0068196845 0.07371817 -0.061293304 -0.01370326 -0.0743052 0.035403304 -0.12788442 0.12123629
0.062391337 -0.006554596 0.051118083 0.07817051 0.15610899 -0.0106926495 -0.11664202 -0.056552146
0.1407818 -0.12266301 -0.061350044 0.053234074 0.058742136 0.10101224 -0.010357166 0.060127724
0.08163319 -0.037344452 -0.15208511 -0.04269487 -0.08080297 -0.044171665 -0.08816175 -0.010251516
0.09387916 -0.09531028 -0.101458386 0.089475244 0.102079175 0.017014433 0.07846192 -0.10072818
-0.16407971 -0.04800768 0.08367838 0.09703806 0.01934373 -0.013049318 -0.006896618 -0.14444558
-0.040827166 0.013773102 -0.071032934 -0.04058299 0.00039330331 0.13728385 -0.10718694 0.062075704
00000000: f7eb 1bbc 4d96 5fbd 3953 2d3d 0edb f63d
00000010: 9776 cebc b0eb 043e fb25 af3d f45c 0f3e
00000020: 39cc b63d 4d93 b73d 6b56 80bd eec3 9e3d
00000030: b21a 0a3e f693 d73d 7635 8e3d 2eff 8d3d
00000040: 68e0 013e f804 1c3e 656f b9bd 937a 153e
00000050: a6b0 6d3d 9f3b 37be 5ce4 b6bd ba19 343e
00000060: 879b 103c 0292 153e f75e 14be 2735 163d
00000070: 75d5 33be 0917 05be abe3 a93d 25d2 2a3e
00000080: 0f0e 08be 8870 a5bd 643a 86bc a8b0 653d
00000090: 196a 213e ebc3 31be 8640 f1bd e1a8 b73d
000000a0: 8b65 d23c 4b81 1cbe 1d06 ef3d 0fae c73d
000000b0: 0870 51bd 017f 1ebe c2ca 1bbd ff18 163e
000000c0: d23d 3d3e d38e 1bbe bff8 eb3d 2702 813b
000000d0: b367 12be 82fa 10bd f912 26bd f565 203e
000000e0: 8c30 05be b46e 323e cad9 fcbc 8285 b7bd
000000f0: 9854 c23c 1d3f 2f3c 3278 25be 7c55 89bd
00000100: 3233 e73d d48c f2bb 51f8 2ebe 70b1 433e
00000110: cc75 77bc 4868 1d3e 2225 12be 4619 043d
00000120: d836 cebd db61 09be 9d14 a2bd 544d f1bd
00000130: d74f 63be fab3 a93d 0f62 74bc e592 6f3d
00000140: b569 2fbe fe64 993d 294f 3bbe 61c1 23be
00000150: 5ecf 46be 8659 10bd 6cac e53d f52d 92bd
00000160: ebe2 01be 0207 40bd 7e45 12be 4cc8 653d
00000170: dc2d 2d3e 8761 413d 9ed9 33be 1bfa 31be
00000180: 0f84 26be 752e 0bbc 989e 67bd b641 4f3d
00000190: b6d0 82bd 6266 2f3e 9a90 a6bd 5c0b d23d
000001a0: 036d 1cbe 6009 d1bc 4152 25be 6440 dd3d
000001b0: 81ff 9c3d 62e6 f43c b7b1 31bd fe8c 2c3e
000001c0: 72df dc3d 0e83 243e e74e e43c 841f bb3d
000001d0: 4f9b 53be 3cb5 213d d66f 95bd 46bf d3bd
000001e0: f102 de3d 8863 ebbd 19af 07be 8e7b b6bd
000001f0: ce40 113e 115d 6fbe 0557 bcbc e357 e2bd
00000200: a08c 91bc fde0 b03d 0581 9b3c aa23 16be
00000210: 7e45 093d 0e76 733d 7814 71bd cda9 d93d
00000220: 01d1 a4bd 4ca6 11be d401 43bd edf6 143e
00000230: a941 4e3e 3871 173c 46f1 013b 950b ee3d
00000240: 0fef 343e a375 5a3d 1ca7 333e 30a7 8abb
00000250: 3025 b7bd 70cc fc3c eb9b 8d3c 90b0 0fbe
00000260: 9438 2bbe ddf1 d7bd 670c bbbd 6a90 15be
00000270: 5c41 193d 74f8 93bd b2a1 aabd a311 1b3e
00000280: 996e d5bd cd69 00be 8bdd 84bd a924 d43d
00000290: 0b98 72bd 452b b6bd a89a 0ebe c6f9 dabd
000002a0: 6343 333e c3d5 8a3d 054f 2d3d e716 c83d
000002b0: 6d50 2ebe fd54 e3bd 5779 333e 1f98 40bd
000002c0: 1f15 6ebd 7c27 2fbe bed1 a2bd 9443 863d
000002d0: 2243 b43d 6fd7 10be 36a0 7d3d c1f2 123d
000002e0: 6f21 15bc a7c2 263e 2d0b 0e3e 3b78 4bbc
000002f0: 86e6 1a3e b502 263d 14fc 55bd aff9 ffbd
00000300: 12e3 ca3c b2e5 e63d 61c5 273d ee3d 0ebe
00000310: a090 d8bc da57 04be 253f d93d d8e3 a3bc
00000320: a977 df3b 8df9 963d b00e 7bbd a383 60bc
00000330: 532d 98bd 0e03 113d 22f4 02be bb4a f83d
00000340: 0f8e 7f3d f0c7 d6bb 3261 513d dc17 a03d
00000350: 09db 1f3e 3930 2fbc 03e2 eebd 39a3 67bd
00000360: 1b29 103e bf36 fbbd 2f4a 7bbd f90b 5a3d
00000370: 989b 703d 81df ce3d 1ab1 29bc 7d48 763d
00000380: 4d2f a73d 7ff6 18bd 33bc 1bbe d1e0 2ebd
00000390: 077c a5bd 59ed 34bd 268e b4bd f9f5 27bc
000003a0: b843 c03d 0932 c3bd 6ac9 cfbd cc3e b73d
000003b0: e30e d13d da61 8b3c a5b0 a03d 934a cebd
000003c0: 8304 28be b3a3 44bd 925f ab3d e4bb c63d
000003d0: be76 9e3c cfcc 55bc 06fd e1bb 8be9 13be
000003e0: 633a 27bd 94a8 613c b779 91bd 593a 26bd
000003f0: 4734 ce39 2394 0c3e d484 dbbd 1843 7e3d

model.8.bias f4 [10]
-0.09986847 -0.006578376 -0.0073472555 -0.043981716 0.12015076 -0.094591334 -0.07628553 -0.061725874
0.10078215 -0.05971192
00000000: d787 ccbd 6b8f d7bb 3fc1 f0bb 2c26 34bd
00000010: 9a11 f63d 1ab9 c1bd 973b 9cbd 45d4 7cbd
00000020: df66 ce3d 7c94 74bd
